{"modelTopology":{"class_name":"Model","config":{"name":"model1","layers":[{"name":"embeddingEncoderInput","class_name":"InputLayer","config":{"batch_input_shape":[null,12],"dtype":"float32","sparse":false,"name":"embeddingEncoderInput"},"inbound_nodes":[]},{"name":"embeddingDecoderInput","class_name":"InputLayer","config":{"batch_input_shape":[null,10],"dtype":"float32","sparse":false,"name":"embeddingDecoderInput"},"inbound_nodes":[]},{"name":"encoderEmbedding","class_name":"Embedding","config":{"input_dim":35,"output_dim":64,"embeddings_initializer":{"class_name":"RandomUniform","config":{"minval":-0.05,"maxval":0.05,"seed":null}},"embeddings_regularizer":null,"activity_regularizer":null,"embeddings_constraint":null,"mask_zero":true,"input_length":12,"name":"encoderEmbedding","trainable":true,"batch_input_shape":[null,12]},"inbound_nodes":[[["embeddingEncoderInput",0,0,{}]]]},{"name":"decoderEmbedding","class_name":"Embedding","config":{"input_dim":13,"output_dim":64,"embeddings_initializer":{"class_name":"RandomUniform","config":{"minval":-0.05,"maxval":0.05,"seed":null}},"embeddings_regularizer":null,"activity_regularizer":null,"embeddings_constraint":null,"mask_zero":true,"input_length":10,"name":"decoderEmbedding","trainable":true,"batch_input_shape":[null,10]},"inbound_nodes":[[["embeddingDecoderInput",0,0,{}]]]},{"name":"encoderLSTM","class_name":"LSTM","config":{"units":64,"activation":"tanh","recurrent_activation":"hard_sigmoid","use_bias":true,"kernel_initializer":{"class_name":"VarianceScaling","config":{"scale":1,"mode":"fan_avg","distribution":"normal","seed":null}},"recurrent_initializer":{"class_name":"Orthogonal","config":{"gain":1,"seed":null}},"bias_initializer":{"class_name":"Zeros","config":{}},"unit_forget_bias":null,"kernel_regularizer":null,"recurrent_regularizer":null,"bias_regularizer":null,"activity_regularizer":null,"kernel_constraint":null,"recurrent_constraint":null,"bias_constraint":null,"dropout":0,"recurrent_dropout":0,"implementation":null,"return_sequences":false,"return_state":false,"go_backwards":false,"stateful":false,"unroll":false,"name":"encoderLSTM","trainable":true},"inbound_nodes":[[["encoderEmbedding",0,0,{}]]]},{"name":"decoderLSMT","class_name":"LSTM","config":{"units":64,"activation":"tanh","recurrent_activation":"hard_sigmoid","use_bias":true,"kernel_initializer":{"class_name":"VarianceScaling","config":{"scale":1,"mode":"fan_avg","distribution":"normal","seed":null}},"recurrent_initializer":{"class_name":"Orthogonal","config":{"gain":1,"seed":null}},"bias_initializer":{"class_name":"Zeros","config":{}},"unit_forget_bias":null,"kernel_regularizer":null,"recurrent_regularizer":null,"bias_regularizer":null,"activity_regularizer":null,"kernel_constraint":null,"recurrent_constraint":null,"bias_constraint":null,"dropout":0,"recurrent_dropout":0,"implementation":null,"return_sequences":true,"return_state":false,"go_backwards":false,"stateful":false,"unroll":false,"name":"decoderLSMT","trainable":true},"inbound_nodes":[[["decoderEmbedding",0,0,{}],["encoderLSTM",0,0,{}],["encoderLSTM",0,0,{}]]]},{"name":"time_distributed_TimeDistributed1","class_name":"TimeDistributed","config":{"layer":{"class_name":"Dense","config":{"units":13,"activation":"softmax","use_bias":true,"kernel_initializer":{"class_name":"VarianceScaling","config":{"scale":1,"mode":"fan_avg","distribution":"normal","seed":null}},"bias_initializer":{"class_name":"Zeros","config":{}},"kernel_regularizer":null,"bias_regularizer":null,"activity_regularizer":null,"kernel_constraint":null,"bias_constraint":null,"name":"timeDistributedSoftmax","trainable":true}},"name":"time_distributed_TimeDistributed1","trainable":true},"inbound_nodes":[[["decoderLSMT",0,0,{}]]]}],"input_layers":[["embeddingEncoderInput",0,0],["embeddingDecoderInput",0,0]],"output_layers":[["time_distributed_TimeDistributed1",0,0]]},"keras_version":"tfjs-layers 1.5.2","backend":"tensor_flow.js"},"weightsManifest":[{"paths":["weights.bin"],"weights":[{"name":"encoderEmbedding/embeddings","shape":[35,64],"dtype":"float32"},{"name":"decoderEmbedding/embeddings","shape":[13,64],"dtype":"float32"},{"name":"encoderLSTM/kernel","shape":[64,256],"dtype":"float32"},{"name":"encoderLSTM/recurrent_kernel","shape":[64,256],"dtype":"float32"},{"name":"encoderLSTM/bias","shape":[256],"dtype":"float32"},{"name":"decoderLSMT/kernel","shape":[64,256],"dtype":"float32"},{"name":"decoderLSMT/recurrent_kernel","shape":[64,256],"dtype":"float32"},{"name":"decoderLSMT/bias","shape":[256],"dtype":"float32"},{"name":"time_distributed_TimeDistributed1/kernel","shape":[64,13],"dtype":"float32"},{"name":"time_distributed_TimeDistributed1/bias","shape":[13],"dtype":"float32"}]}],"format":"layers-model","generatedBy":"TensorFlow.js tfjs-layers v1.5.2","convertedBy":null}